2018-12-29 13:07:36.106365: I tensorflow/core/platform/cpu_feature_guard.cc:141] Your CPU supports instructions that this TensorFlow binary was not compiled to use: AVX2 FMA
Found 2341 images belonging to 6 classes.
Found 780 images belonging to 6 classes.
INFO:Train steps: 73.15625|Validation steps: 24.375
_________________________________________________________________
Layer (type)                 Output Shape              Param #
=================================================================
conv2d_1 (Conv2D)            (None, 32, 128, 128)      896
_________________________________________________________________
conv2d_2 (Conv2D)            (None, 32, 126, 126)      9248
_________________________________________________________________
max_pooling2d_1 (MaxPooling2 (None, 32, 63, 63)        0
_________________________________________________________________
dropout_1 (Dropout)          (None, 32, 63, 63)        0
_________________________________________________________________
conv2d_3 (Conv2D)            (None, 32, 63, 63)        9248
_________________________________________________________________
conv2d_4 (Conv2D)            (None, 32, 61, 61)        9248
_________________________________________________________________
max_pooling2d_2 (MaxPooling2 (None, 32, 30, 30)        0
_________________________________________________________________
dropout_2 (Dropout)          (None, 32, 30, 30)        0
_________________________________________________________________
conv2d_5 (Conv2D)            (None, 64, 30, 30)        18496
_________________________________________________________________
conv2d_6 (Conv2D)            (None, 64, 28, 28)        36928
_________________________________________________________________
max_pooling2d_3 (MaxPooling2 (None, 64, 14, 14)        0
_________________________________________________________________
dropout_3 (Dropout)          (None, 64, 14, 14)        0
_________________________________________________________________
flatten_1 (Flatten)          (None, 12544)             0
_________________________________________________________________
dense_1 (Dense)              (None, 512)               6423040
_________________________________________________________________
dropout_4 (Dropout)          (None, 512)               0
_________________________________________________________________
dense_2 (Dense)              (None, 6)                 3078
=================================================================
Total params: 6,510,182
Trainable params: 6,510,182
Non-trainable params: 0
_________________________________________________________________
INFO:None
Epoch 1/50
73/73 [============================>.] - ETA: 0s - loss: 1.4401 - acc: 0.3968^C^C^C^C^C^C^C^CTraceback (most recent call last):
  File "classifiers.py", line 350, in <module>
…
