…
INFO:validate length: 913| ratio: 0.2
INFO:test length: 913| ratio: 0.2
2018-12-28 20:57:29.878711: I tensorflow/core/platform/cpu_feature_guard.cc:141] Your CPU supports instructions that this TensorFlow binary was not compiled to use: AVX2 FMA
Found 2739 images belonging to 2 classes.
Found 913 images belonging to 2 classes.
INFO:Train steps: 85.59375|Validation steps: 28.53125
_________________________________________________________________
Layer (type)                 Output Shape              Param #
=================================================================
conv2d_1 (Conv2D)            (None, 32, 128, 128)      896
_________________________________________________________________
conv2d_2 (Conv2D)            (None, 32, 126, 126)      9248
_________________________________________________________________
max_pooling2d_1 (MaxPooling2 (None, 32, 63, 63)        0
_________________________________________________________________
dropout_1 (Dropout)          (None, 32, 63, 63)        0
_________________________________________________________________
conv2d_3 (Conv2D)            (None, 32, 63, 63)        9248
_________________________________________________________________
conv2d_4 (Conv2D)            (None, 32, 61, 61)        9248
_________________________________________________________________
max_pooling2d_2 (MaxPooling2 (None, 32, 30, 30)        0
_________________________________________________________________
dropout_2 (Dropout)          (None, 32, 30, 30)        0
_________________________________________________________________
conv2d_5 (Conv2D)            (None, 64, 30, 30)        18496
_________________________________________________________________
conv2d_6 (Conv2D)            (None, 64, 28, 28)        36928
_________________________________________________________________
max_pooling2d_3 (MaxPooling2 (None, 64, 14, 14)        0
_________________________________________________________________
dropout_3 (Dropout)          (None, 64, 14, 14)        0
_________________________________________________________________
flatten_1 (Flatten)          (None, 12544)             0
_________________________________________________________________
dense_1 (Dense)              (None, 512)               6423040
_________________________________________________________________
dropout_4 (Dropout)          (None, 512)               0
_________________________________________________________________
dense_2 (Dense)              (None, 1)                 513
=================================================================
Total params: 6,507,617
Trainable params: 6,507,617
Non-trainable params: 0
_________________________________________________________________
INFO:None
Epoch 1/50
86/85 [==============================] - 296s 3s/step - loss: 0.4980 - acc: 0.8021 - val_loss:0.3999 - val_acc: 0.8543
Epoch 2/50
86/85 [==============================] - 288s 3s/step - loss: 0.3422 - acc: 0.8667 - val_loss:0.3115 - val_acc: 0.8839
…
